Gan_representation/dcgan_netD.pkl (torch, 770091 bytes, 25 tensors)

weight f4 [20, 1, 11]
000000 e0 e3 02 3b 94 79 ad 3c 78 bb 1c bb 9a 60 97 3a
       0.001997225 0.021176137 -0.002391545 0.0011549175
000010 7d 94 13 3d 6b 24 82 3b 32 5b 5f bc 45 83 98 3c
       0.03603028 0.0039716265 -0.0136325825 0.018617282
000020 a8 76 4d bc 1a f1 90 bc c5 20 05 bd 73 96 f8 ba
       -0.012540497 -0.017693091 -0.032501955 -0.0018965736
000030 e2 d4 f6 3b 31 85 c5 bc 62 0d 90 bc b3 1b de 3c
       0.007532702 -0.024111362 -0.017584506 0.027112817
000040 09 f2 98 3c f1 c5 05 3d 46 95 2e bd 58 b3 f3 bb
       0.018670099 0.032659475 -0.042622827 -0.007437151
000050 df c8 60 3c 5b 81 17 bc ae 58 72 bb a5 1a 11 3c
       0.013719766 -0.009247149 -0.0036979127 0.00885645
000060 72 ca b9 bc b8 a3 de bc 09 07 0c 3d f4 41 d6 bc
       -0.022679541 -0.027177677 0.034186397 -0.026154496
000070 59 23 23 3b 33 76 99 39 7a a6 74 3c 36 b9 ce 3a
       0.0024892895 0.000292705 0.014932269 0.001577175
000080 51 30 4a 3c 0c 9f 76 bc 42 61 05 3c 7f 6b e6 bc
       0.012340621 -0.015052568 0.008140864 -0.02812743
000090 ac 9c 02 3d 81 d0 94 bb cd be 79 bb 48 f4 b0 bc
       0.031887695 -0.004541457 -0.003810811 -0.021600857
0000a0 bc 56 1b 3d bf 30 af bc f5 75 89 3c f6 20 5e 3b
       0.037924513 -0.021385549 0.01677988 0.0033894158
0000b0 87 7e 65 3c da 5b 4f bd 16 23 e1 bc 57 5e 45 3b
       0.014007217 -0.050624706 -0.02748255 0.0030116045
0000c0 04 0c 04 bc f5 5f e0 ba fe d0 b5 3c 5a 9d 8d 3b
       -0.008059505 -0.0017118441 0.022194382 0.0043217363
0000d0 06 66 79 bc 08 38 e2 3c 1c c3 06 3d 8e 93 12 3d
       -0.015222078 0.027614608 0.032900915 0.03578525
0000e0 21 bc 65 bc 38 7a 39 bc ef ba 99 bb 5d 87 07 bb
       -0.014021904 -0.011320643 -0.0046914737 -0.0020680048
0000f0 2b 3e b1 bc c9 50 44 bb 67 23 9d b8 08 5e c0 ba
       -0.02163609 -0.0029955378 -7.4929376e-05 -0.0014676461
000100 66 ed 53 3c 48 77 ff 3c bc 19 ab 3c 77 6b 86 bc
       0.012935018 0.031184807 0.020886295 -0.016408665
000110 45 34 a5 bc a3 3a 8f 39 68 6b 53 3c 14 3d 8e 3c
       -0.020166526 0.00027318773 0.012904026 0.017363109
000120 e9 ee d4 3a d4 39 ce bc 87 96 32 3c fd 18 a1 3b
       0.0016245517 -0.025174059 0.010900146 0.004916309
000130 5a f9 63 bc 2c 15 99 bd d3 8c 9a bc cf 89 4a bd
       -0.0139144305 -0.07474741 -0.018865978 -0.04944783
000140 17 b2 91 ba 97 6c 2a bd 88 1d d7 3c 52 46 a5 38
       -0.0011115697 -0.041607466 0.026259199 7.880911e-05
000150 6e 07 2d 3c 19 86 34 3c 77 50 9e bc 66 35 69 3c
       0.010560853 0.0110182995 -0.019325478 0.014233923
000160 a3 5d b8 bc 5c 07 76 bc ba d4 89 3c ce a1 e7 3c
       -0.022505587 -0.015016403 0.016825069 0.028275397
000170 9c 3c 1b bc e7 42 05 bd a5 6c 62 bc 82 f4 a5 bb
       -0.0094749 -0.032534506 -0.013819848 -0.005064548
000180 57 84 1c bc 55 a7 f3 3c e8 02 04 3d df a9 a3 bc
       -0.009553037 0.029742876 0.032229334 -0.019978462
000190 f9 bd 96 3b ff 34 93 3c 1f 05 94 bc 08 89 e4 3b
       0.004600283 0.017969606 -0.018068848 0.006974343
0001a0 6f bc b4 3c fd cb 26 bd aa 9f e7 bb 68 c1 a0 3c
       0.022062508 -0.040721882 -0.007068594 0.019623473
0001b0 37 0e 1f bc c5 c2 4d 3c a7 89 95 3b c0 8d 5c bc
       -0.009707979 0.012558644 0.0045635286 -0.01346153
0001c0 ee 03 8d 3c a3 33 6b 3b 13 5c 5e bc 05 fe f6 3c
       0.017213788 0.0035888932 -0.013571757 0.030150423
0001d0 0f ed 37 bd d0 b1 fa 3b 1d 01 86 3c e5 c8 22 bc
       -0.04490381 0.0076505914 0.016357953 -0.009935592
0001e0 57 14 b0 3b 03 4f ad 3c 2b 46 26 bd 86 8b 8d bc
       0.0053735184 0.02115584 -0.04059426 -0.017278444
0001f0 48 a1 04 3d b7 5f aa bc 41 f4 a3 3c c7 67 b2 3c
       0.032380372 -0.020797594 0.02001393 0.021778
000200 a9 f1 a4 bb e5 99 1d 3b 77 f0 5c bc c1 44 be bb
       -0.005033691 0.0024048027 -0.013485066 -0.005806536
000210 ab 21 9a 3c c4 06 36 bc 95 f5 82 3c 75 a8 c9 3c
       0.018814882 -0.0111100115 0.015986243 0.02461646
000220 42 54 9b 3c 41 93 f8 bb 16 26 2d 3c 0f 35 a3 bc
       0.018961076 -0.0075859134 0.010568162 -0.019922761
000230 d6 8a 93 bc 4a a2 dc bb 47 9c f2 bc f9 a0 12 3a
       -0.018010538 -0.0067332136 -0.029615534 0.0005593445
000240 59 c5 84 3c c7 9c 0a bc a3 e7 8b bc ae f7 1e 3d
       0.016207384 -0.00846023 -0.017078226 0.038810425
000250 8b e3 f6 bc f2 43 7d bc ab b7 da 3c 56 9c d0 ba
       -0.030137798 -0.015458094 0.026698908 -0.0015915732
000260 87 e3 7c bb 5e eb af ba 9e 6f 0f 3c d1 d3 a5 bc
       -0.0038587765 -0.0013421585 0.008754639 -0.020242603
000270 d4 b1 42 3c e4 38 49 bc b6 53 4d bc 8b 4a 95 3b
       0.011883218 -0.01228163 -0.012532165 0.0045560054
000280 0d 7c c0 3c 95 fd c3 3c ad b0 7a bb 04 cd ee 3c
       0.023496652 0.023924628 -0.003825228 0.029150493
000290 84 c4 4c bd fb 25 30 bd a3 7a cf 3b e0 e4 d7 bb
       -0.0499921 -0.04300497 0.006331758 -0.0065885633
0002a0 02 e3 93 3c ff 1a 9a 3c 5d 8d 8b 3c 51 94 65 bc
       0.018052582 0.0188117 0.01703518 -0.014012412
0002b0 55 a6 a8 3b d2 f2 ac 3c 28 5e d7 bb f3 2c a2 bc
       0.0051467814 0.02111188 -0.0065725036 -0.019796824
0002c0 e1 6a 07 3d ca fc 1f bb 49 a6 55 3c e8 db 08 3d
       0.033060912 -0.0024412149 0.013040134 0.033412844
0002d0 84 c8 02 bc 7b 59 c1 bc d3 fb f9 bb 01 e9 46 bc
       -0.007982377 -0.023602238 -0.0076288967 -0.012140513
0002e0 48 0c 89 bc 73 d8 0e bc a5 2f 13 bd 78 dc 03 3c
       -0.016729489 -0.008718598 -0.03593411 0.008048169
0002f0 91 6d b6 3d a0 f0 56 3d 2b c2 05 3d 70 76 9b 3a
       0.08907617 0.05247557 0.032655876 0.0011860859
000300 49 a8 9d 3c e5 14 bc bb 31 19 d1 bc 9b 1f 16 3c
       0.019245284 -0.0057397955 -0.025524708 0.009162809
000310 08 4a 1d 3a 94 ba b9 bb 46 ef 1f bd b0 bf 45 bd
       0.0006000106 -0.005667994 -0.03904655 -0.04827851
000320 d5 d7 e4 bb f4 0c 4c 3c 85 b7 09 bd 5e 62 5a 3c
       -0.006983737 0.01245426 -0.033622283 0.013329117
000330 f6 93 2b bb fa 74 ce 3c a8 58 8f 3c f4 a2 97 3b
       -0.002618072 0.025202263 0.01749833 0.00462758
000340 82 c9 dc bb 46 8f cc bc 1f e9 6d 3c 90 43 4d 3d
       -0.006737889 -0.024970662 0.014520912 0.05011326
000350 e2 03 8f 3c 3f 22 39 bd 8d 46 04 bd 7a f3 3e 3b
       0.017457906 -0.045198675 -0.032293845 0.0029136823
000360 c4 4d 02 bc ef 15 ca 3c 54 79 9c 3c 96 8f 83 bc
       -0.007953111 0.024668662 0.019100823 -0.016059678

bias f4 [20]
000000 96 d6 b0 3d 4d eb 02 be 12 74 45 3e 3a 7f 90 3e
       0.08634679 -0.12785073 0.19282559 0.28222066
000010 24 e1 96 3e 11 6f 9f 3b a4 86 07 3c bd 1d 91 be
       0.29468644 0.004865535 0.008271847 -0.28343
000020 35 38 35 3e 6b 21 6a 3e 89 a6 5a 3d b8 e9 d3 3d
       0.17697223 0.2286431 0.053381477 0.10347313
000030 d1 1d 40 be 03 97 29 3e b9 e1 59 be 26 40 0a be
       -0.18761374 0.16561513 -0.21277513 -0.13501033
000040 ca a9 bc 3d 1b c4 08 3e 3c c6 86 3e 35 d9 8b be
       0.09212072 0.13356058 0.26323116 -0.27314153

weight f4 [20]
000000 41 a1 79 3f 2d 36 82 3f e3 36 85 3f e8 7c 7a 3f
       0.9751168 1.0172783 1.0407375 0.9784684
000010 62 67 79 3f f3 ae 78 3f 31 30 81 3f 8f bd 72 3f
       0.97423375 0.9714195 1.0092832 0.94820493
000020 4f dd 7d 3f 3b e7 82 3f c2 f1 7a 3f ea 2c 87 3f
       0.99165815 1.0226816 0.98025143 1.0560582
000030 5d d4 82 3f 83 a9 81 3f 01 62 85 3f 56 2c 7e 3f
       1.0221058 1.0129856 1.0420533 0.992864
000040 5b 90 74 3f b0 87 78 3f 38 af 77 3f 2e d1 86 3f
       0.9553277 0.9708204 0.9675174 1.0532587

bias f4 [20]
000000 76 74 03 bb be fb 8d 3c 27 39 20 bd f2 ab ed bc
       -0.002005843 0.017331954 -0.039117005 -0.029012654
000010 95 c3 a6 bd 40 4d c8 bd 17 b4 40 b9 86 da 89 bd
       -0.08142773 -0.09780359 -0.00018377636 -0.06731133
000020 cb 6e 17 bd e7 5e c8 bc 09 73 c4 bc be 79 d4 bc
       -0.036970895 -0.024459315 -0.023980634 -0.025936957
000030 54 eb 82 3c 03 38 ea bc 42 64 f5 bb c3 1f 67 bd
       0.015981354 -0.028591162 -0.0074887583 -0.056426775
000040 90 ff 70 bd c4 8a b1 bd 06 c1 a3 bd 83 92 57 bb
       -0.058837473 -0.086690456 -0.07995801 -0.0032893724

running_mean f4 [20]
000000 03 b3 b4 3d f4 9b 04 be 7a 56 42 3e bf 88 91 3e
       0.08823206 -0.12950116 0.189783 0.2842464
000010 7b 98 97 3e 2d df 82 3c 75 7f 90 3b 8c a4 b6 be
       0.2960852 0.01597556 0.0044097253 -0.35672414
000020 2f 63 34 3e c4 01 64 3e 38 a0 5f 3d 64 8d cf 3d
       0.1761596 0.22266299 0.054596156 0.1013439
000030 ad 78 42 be 55 4a 2b 3e a5 c5 58 be b3 2a 0b be
       -0.18991347 0.16727574 -0.21169145 -0.13590507
000040 5b 0e 94 3d 2a b8 65 3e ed 46 6c 3e 03 8c 8b be
       0.072293006 0.22433534 0.23073931 -0.27255258

running_var f4 [20]
000000 d2 66 80 38 00 0e 66 37 b0 28 a0 37 e1 e8 88 37
       6.1226674e-05 1.3712328e-05 1.9092433e-05 1.6320906e-05
000010 d9 b0 b7 38 ff 3b 80 38 15 5c 23 37 66 a1 0c 3b
       8.7590604e-05 6.114691e-05 9.736997e-06 0.0021458506
000020 32 bc 62 38 85 2c 90 37 4e 39 44 36 9b 07 13 37
       5.405787e-05 1.7186869e-05 2.9239632e-06 8.763654e-06
000030 23 91 a5 38 cc ee 9e 36 2e 24 d5 36 a9 b4 3e 37
       7.894847e-05 4.7365666e-06 6.3521065e-06 1.1366946e-05
000040 05 15 61 39 f0 49 52 3b d4 3e 00 3a 6b 98 ee 36
       0.00021465503 0.0032087527 0.00048921746 7.1106965e-06

weight f4 [40, 20, 11]
000000 84 ab 27 3b f0 99 07 bb 8c d6 27 bc 7f da b8 3c
       0.002558441 -0.002069112 -0.010244023 0.022565125
000010 4b 78 cf 3b bc 0e a8 3b aa 69 ac 3b ab b6 5b 3c
       0.0063314787 0.0051287096 0.0052616196 0.013410251
000020 4c 94 a1 3c 15 1b 0a 3b 82 c1 4d bc a7 67 93 bc
       0.019724034 0.002107327 -0.012558343 -0.017993761
000030 4d de a8 3c 73 41 ef 3a 79 d3 da bc dc 2c 87 bc
       0.020613814 0.0018253758 -0.026712166 -0.016500883
000040 1c 90 ae bb 19 ac f7 bc c0 2c 44 bc 34 99 98 bb
       -0.005327238 -0.03023343 -0.01197356 -0.004656935
000050 c3 75 6c bb d1 56 aa bc 13 37 a1 3c 9c fb 82 3c
       -0.0036080934 -0.02079335 0.019679582 0.015989117
000060 ce 18 77 3c 6a 45 8b 3c f1 f9 bf bc 6a 24 13 bc
       0.0150815975 0.017000873 -0.023434611 -0.00898085
000070 c5 45 c3 bc e9 ca 14 bd 7d 80 ec bc 29 6f fa bc
       -0.02383698 -0.036326323 -0.028869862 -0.030570583
000080 dc 24 94 bd 3c 26 e4 3c 63 c0 b7 3c a3 16 93 3c
       -0.07233593 0.027850263 0.022430604 0.01795513
000090 2c 20 60 bc ce 6a 41 3d d6 75 8b 3c a7 1c 17 3d
       -0.013679545 0.047220998 0.017023962 0.03689256
0000a0 d2 5e 24 bd a2 8a d7 bc 9b 44 d2 bc b1 3a c5 bc
       -0.04012949 -0.026311222 -0.02566748 -0.024075838
0000b0 f4 50 c8 3c 01 ec 1d 3d 5e 22 a3 bc 5d 28 36 bc
       0.024452664 0.03855515 -0.019913848 -0.011118022
0000c0 eb ae 46 3c 0f a2 e4 ba b1 f4 8f bb 62 12 81 3b
       0.012126665 -0.0017443317 -0.004393183 0.003938959
0000d0 23 f3 c5 bc 33 eb 2a ba 33 e6 91 bc 92 1a bf b9
       -0.024163788 -0.0006520033 -0.017809963 -0.00036450155
0000e0 ef d2 0b 3b 9d e8 b9 38 b1 55 45 bc b8 e2 8d 3c
       0.0021335443 8.864815e-05 -0.012044356 0.017320022
0000f0 d4 14 86 3c 0f d3 20 39 5b 8a d4 3c 92 6f b0 3a
       0.016367353 0.00015337415 0.02594488 0.0013460985
000100 e5 2d f1 3b 9d c8 92 3c 66 e3 90 bc d0 69 b5 bc
       0.0073602074 0.017917925 -0.017686557 -0.022145182
000110 2c e9 76 bb b0 56 bb ba b6 ba b3 3b 9e ca af 3c
       -0.0037675602 -0.0014292803 0.005484904 0.02145892
000120 80 a7 13 bc 3a ff 7d 3c 75 bc 2a 3b ce 4a c9 bc
       -0.009012103 0.015502745 0.002605227 -0.024571802
000130 9c cd f7 bc 20 3c cf 3a ef c3 4d 3c 9f d0 d9 3c
       -0.03024941 0.0015810765 0.012558921 0.026588736
000140 91 76 8f 3c ef bb d9 3c 66 87 57 3c 9a 10 bf 3c
       0.017512592 0.026578872 0.01315484 0.023323346
000150 f3 11 34 bc 5a f0 62 bc 85 c2 66 bc ff 7e 52 3c
       -0.010990608 -0.01385125 -0.014084463 0.012847661
000160 fb be 3a 3d 72 f3 9a 3c e5 97 a3 bb b6 b2 1e bc
       0.04559229 0.018914912 -0.0049924725 -0.009686163
000170 8b cc 85 3c ff 43 ca 3c 31 2f d5 bc 84 50 2e bd
       0.016332885 0.024690626 -0.02602348 -0.042557254
000180 27 ae 39 bd 80 ea 2d bd 25 33 0d bd f8 34 44 3d
       -0.0453321 -0.042459965 -0.034472603 0.047902077
000190 b6 36 66 3d 29 af 82 3c 43 53 5b bc 33 47 2e 3c
       0.05620452 0.015952663 -0.01338655 0.010637092
0001a0 01 7b 48 3d 25 e2 ce bc f4 b2 6c 3c e2 3c d8 bc
       0.04894543 -0.025254318 0.014446963 -0.026396219
0001b0 6b 71 6e 3c 76 38 5b 3c a3 da 7b 3c 30 fd 73 3c
       0.014553408 0.013380161 0.015371951 0.014891908
0001c0 36 a9 b4 3c 72 55 45 3c e9 d7 59 ba 86 6e c2 3c
       0.022053342 0.0120442975 -0.0008310066 0.023734342
0001d0 20 44 29 3c ea 26 b6 3c c5 12 ac 3b 6c f6 8b 3b
       0.010331184 0.022235353 0.005251261 0.004271319
0001e0 5c 78 3f 3c dc 95 aa 3c 18 bc b3 ba 1f fc 4e bc
       0.011686411 0.020823412 -0.0013712673 -0.012633353
0001f0 11 bc 7d 3d 1b 30 3d bc d2 c3 96 bc 7f 73 e9 3b
       0.061946932 -0.011547114 -0.018403921 0.007124364
000200 0d db 55 bc 46 5d d8 3c 94 17 9f 3c 7a c1 ca 3b
       -0.013052714 0.026411664 0.019420423 0.006187615
000210 e3 52 27 bb af d2 cc 3b 94 b5 85 bb 67 4d ed 3c
       -0.0025531582 0.0062507014 -0.0040804837 0.028967572
000220 9b 45 04 bc 15 e3 9e bc 93 de cb 3c 0f d5 fc bb
       -0.008073236 -0.01939539 0.024886405 -0.0077158283
000230 5e d5 95 3c 34 1a c7 3b 1f f9 8e bb d5 ad 38 bd
       0.018290218 0.0060761217 -0.0043631936 -0.045087654
000240 6e 15 0e 3d f4 54 88 bb 44 c8 41 bc 7b 23 3b 3c
       0.034688406 -0.004160518 -0.011827532 0.011422033
000250 fd d3 08 bd b1 d3 8c 3c a2 46 9a 3c a9 e8 a9 bc
       -0.033405293 0.017190786 0.018832508 -0.020740824
000260 29 8b a7 3c 0f 4a 08 3d a9 b5 c6 bc 67 4d 24 3c
       0.020452099 0.033273753 -0.024256544 0.01002822
000270 4e d7 28 bd 44 b0 c7 bc db 12 b4 bc 2e 3d 80 3c
       -0.041220956 -0.024376042 -0.021981647 0.015654173
000280 00 a8 11 bd a9 a4 9c bc 60 cb 90 3c c3 35 92 3c
       -0.035560608 -0.019121485 0.017675102 0.017847901
000290 f1 8f c4 bc ab 65 54 3c 6a 2a ef bb fe 60 a7 bc
       -0.023994418 0.012963693 -0.0072987573 -0.020431992
0002a0 66 6a 96 b9 d1 ad a2 bc b9 0f 9b ba b2 8e c0 bb
       -0.00028689503 -0.019858273 -0.0011830247 -0.0058763856
0002b0 ab 90 d8 ba 33 5a 8e 3c d3 c3 ea bb 65 96 bf 3b
       -0.0016522607 0.017376995 -0.0071644573 0.005846786
0002c0 7c f6 14 bc fc f2 ac 3c 71 71 eb ba 6a 54 9e bb
       -0.00909197 0.021111958 -0.0017962885 -0.0048318403
0002d0 05 6c a0 3b fe 9b 41 3b 60 fd c8 3b f8 ec 83 bb
       0.0048956894 0.0029542441 0.0061337203 -0.0040260516
0002e0 da 0f 36 bc 33 42 58 bc 26 93 8f bb 32 5e 9b bc
       -0.011112178 -0.013199377 -0.004381555 -0.018965814
0002f0 fb 12 9d 3b e4 dc 01 bc dd 1c fa b9 a8 cd 35 3c
       0.0047935224 -0.0079262 -0.0004770522 0.011096396
000300 d9 91 18 3a 00 8f 80 3c 0e fb 80 39 5e 8c 6d ba
       0.0005820073 0.015693188 0.00024601113 -0.0009061749
000310 4f 9c 2d 3c c4 6d 1b 3c 5d db 23 3d e5 5d 87 3c
       0.010596349 0.009486619 0.040004123 0.016524265
000320 30 fe 76 ba ae f8 ab 3c 92 b9 58 bc a7 eb 9c ba
       -0.0009422032 0.020992603 -0.013227837 -0.0011972085
000330 d1 81 82 3c c4 22 11 3c 73 d4 03 3d f0 43 8f 3c
       0.015931042 0.008858386 0.03218503 0.01748845
000340 61 04 9b bb 09 0f 8e 3b 5a a5 09 3d 72 d4 13 3d
       -0.0047307466 0.0043352884 0.033604957 0.036091276
000350 bf 05 fd 3b fe e2 ab 3c e1 92 c8 b9 90 d3 cd bc
       0.0077216323 0.020982262 -0.00038256406 -0.025125295
000360 61 fe f0 3b 40 11 3b bc a9 18 06 ba cb a5 0f bb
       0.007354543 -0.011417687 -0.0005115369 -0.0021918889
000370 ad f8 5d bc dd 30 db bc 7b 8a b6 bc ab 89 10 bc
       -0.013548058 -0.026756698 -0.02228283 -0.008821885
000380 45 bf ef bc 6b c6 d7 3b 02 ad 39 39 82 33 4a bd
       -0.02926601 0.0065849326 0.00017707425 -0.049365528
000390 2e c8 72 bd 14 0b 7c bd 1b 9c 25 bd 8e f2 34 3b
       -0.059272937 -0.061534002 -0.040432077 0.0027610394
0003a0 27 b4 69 3c ca 99 85 bc b1 d1 71 3c 82 aa ea 3c
       0.014264143 -0.016308684 0.014759467 0.028645758
0003b0 80 64 ae 3b 9f bb 67 bc d3 95 a5 bc 10 65 52 bc
       0.005322039 -0.014143853 -0.020213043 -0.012841478
0003c0 8d 12 32 3d fb ca c9 bc 1e df f7 bb 5f 57 48 3c
       0.043474723 -0.024632921 -0.0075644394 0.012227862
0003d0 95 7e 13 bd eb 5c 88 bc 29 62 f7 bb 62 2d 2d 3c
       -0.03600939 -0.01664587 -0.0075495434 0.010569902
0003e0 32 b4 2f bc 3b da 0a 3c 61 8b 7e bc 2a e2 81 3b
       -0.010724114 0.008474882 -0.01553616 0.0039637284
0003f0 94 d3 30 3d 46 25 b8 3c 99 14 87 3c 60 4a 43 3c
       0.043170527 0.02247871 0.016489314 0.011919588

bias f4 [40]
000000 38 0e a2 3c 24 ac 13 3d 8e 08 76 3c ea eb 24 bd
       0.01978217 0.036052838 0.015016688 -0.040264048
000010 d6 b6 82 bd d0 6b 64 bc b1 4b b1 bb 7e d2 85 3d
       -0.063825294 -0.01394172 -0.0054106344 0.06534289
000020 74 e3 3b bd cd fd 2f 3c 42 63 22 bd f5 47 07 bd
       -0.045871213 0.010741663 -0.03964544 -0.033027608
000030 31 dd 87 3d 8d f5 ca bc d0 aa 2f bd f5 02 af 3c
       0.06633986 -0.02477529 -0.04288751 0.021363715
000040 2b b5 b2 3c 04 a8 14 3d 7c b2 87 bd c2 64 55 3c
       0.021814903 0.036293045 -0.0662584 0.013024511
000050 4d d5 da 3b 14 69 74 bd ad 7b 14 bc 6c 1d 6d bd
       0.0066782595 -0.059670523 -0.00906269 -0.057889387
000060 97 8c fb bc f4 30 a4 3b 17 5f 02 bd cd 21 eb bc
       -0.030706687 0.0050107185 -0.031828966 -0.02870264
000070 31 ff 8b 3d c6 82 56 3d 57 9c 8b bd f4 5d 28 3d
       0.06835783 0.05237081 -0.06816929 0.041105226
000080 f7 b2 16 bd 32 78 e9 3b 43 9c 66 bd b4 2c 55 bd
       -0.036791768 0.007124924 -0.056301367 -0.052044585
000090 43 d5 66 bd 63 2a 3d 3d 8a fe cf b9 a5 ee 09 bd
       -0.056355726 0.046183 -0.00039671763 -0.033674855

weight f4 [40]
000000 2b 80 82 3f bc 36 7e 3f 91 d6 81 3f d2 a3 7f 3f
       1.0195364 0.9930227 1.0143605 0.99859345
000010 9d eb 7c 3f e3 81 80 3f a4 a3 7b 3f b2 ae 82 3f
       0.9879702 1.0039638 0.9829657 1.0209563
000020 56 3a 80 3f fb 16 81 3f 9b c0 79 3f 7c a7 7c 3f
       1.0017803 1.0085138 0.9755952 0.9869306
000030 14 11 82 3f 38 fe 80 3f 24 a7 7f 3f 8e 6a 81 3f
       1.0161462 1.0077581 0.9986441 1.0110643
000040 f8 a6 77 3f 16 f3 77 3f 13 9e 7f 3f 26 f4 80 3f
       0.9673915 0.96855295 0.9985058 1.0074508
000050 64 a8 7f 3f 09 99 7e 3f 93 00 7c 3f 9b 46 7f 3f
       0.9986632 0.99452263 0.98438376 0.9971711
000060 a2 61 7d 3f d2 23 81 3f 83 4a 7f 3f 59 39 82 3f
       0.989771 1.0089056 0.9972307 1.0173751
000070 f2 d4 7f 3f 15 e9 80 3f 58 f2 7d 3f da 0d 7b 3f
       0.99934304 1.0071131 0.9919791 0.9806801
000080 9c a9 81 3f 67 82 83 3f b8 2d 80 3f 83 f5 82 3f
       1.0129886 1.0274171 1.0013952 1.0231174
000090 3d 8e 80 3f 67 55 78 3f 73 3d 7e 3f 5f bc 80 3f
       1.0043408 0.97005314 0.99312514 1.0057486

bias f4 [40]
000000 13 c3 71 bc d6 10 76 bc b0 fd b4 bc 37 0d 23 bb
       -0.014755982 -0.015018662 -0.022093624 -0.0024879703
000010 3a 6f 89 bc 32 5f 3f bb e0 b6 9e bc f1 26 95 bc
       -0.01677667 -0.0029201028 -0.019374311 -0.018207045
000020 4b a3 0c bd b9 4c c3 bc f3 25 da bc 5b b0 f2 bc
       -0.034335416 -0.023840295 -0.026629424 -0.029625108
000030 5e d8 14 bc d7 2c 0a bd 35 ac b1 3b 74 5e a5 bc
       -0.009084789 -0.03373417 0.00542214 -0.02018664
000040 8c 3a fd ba 04 b0 62 bc b8 37 b2 bc e0 b2 94 39
       -0.0019319816 -0.013835911 -0.021755084 0.00028362032
000050 52 58 e7 bb 42 c9 17 bd 56 7a a1 bb bd e6 5d bb
       -0.007060089 -0.03705717 -0.0049279137 -0.0033859455
000060 8c 6b 6f bc 56 af 24 bd 9d 1a e4 bc be 26 8f 3a
       -0.0146130435 -0.040206276 -0.027844721 0.001092158
000070 4f 78 da bc 04 19 25 bd d0 bc b2 ba 02 44 31 bc
       -0.026668696 -0.04030706 -0.0013636593 -0.010819437
000080 c7 eb 09 bd fe 71 b9 bc 90 02 f9 bc a1 c1 c5 bc
       -0.03367212 -0.022637364 -0.03039673 -0.024140181
000090 33 db 04 bd d8 77 64 bc ec cf 52 bb 4f 22 a2 bc
       -0.032435607 -0.013944589 -0.0032167388 -0.01979175

running_mean f4 [40]
000000 6a 9c 03 3e 5c 05 73 bd 16 46 e7 b9 27 6e ff bd
       0.12852636 -0.059331283 -0.00044111972 -0.12472182
000010 6c c2 88 bc d2 f3 01 be 66 dd c0 bd 5a f8 ee 3c
       -0.01669427 -0.12690666 -0.094172284 0.029171158
000020 4d f2 24 bd 1a 95 64 be c4 1b 81 be fc d3 ed 3d
       -0.04027014 -0.22322503 -0.25216496 0.116126984
000030 07 e0 13 be 8e 38 ab 3e 9a 2e 19 bc ac 9c 51 bc
       -0.14440928 0.33441585 -0.00934949 -0.012793701
000040 cc 95 89 3d 65 aa 86 3e 14 e3 ed bd e8 18 74 3d
       0.067180246 0.26301876 -0.11615577 0.059594065
000050 f3 9e c6 bd b5 b2 bd be ee b0 34 bc 18 ed e3 bd
       -0.09698286 -0.37050405 -0.011028511 -0.111292064
000060 10 ba 5c 3b ea da af 3c 25 2d 86 3e 76 c8 7b be
       0.0033680238 0.021466691 0.26206318 -0.24588189
000070 de 71 d4 3d f2 81 95 3e b5 e4 67 bd 42 78 7a 3d
       0.10373281 0.29200703 -0.056614596 0.061149843
000080 27 9b a4 bc fc 6b b1 3d d9 ee 81 3d 79 a7 9a 3d
       -0.020093514 0.086631745 0.06344385 0.07551474
000090 f6 fb 08 bd 4d 1a 9c bc 64 04 f3 3d ef 87 00 be
       -0.033443414 -0.01905551 0.11866072 -0.12551855

running_var f4 [40]
000000 5b 60 f5 3c fb 7e 85 3e 8d ab f4 3d fb d0 42 3d
       0.029953172 0.2607344 0.11946783 0.04756258
000010 34 17 56 3d 60 d5 02 3e 51 09 22 3d 8e 5c 56 3e
       0.052268222 0.12776709 0.039559666 0.20933744
000020 fb a1 9b 3d e1 7c 8c 3d d8 11 53 3d 81 b8 78 3d
       0.07599255 0.06859756 0.05153069 0.06072283
000030 1f c7 fa 3d 3b 3f dd 3d 9b cc ea 3d c1 5c 3a 3d
       0.122450106 0.10803076 0.11464807 0.045498613
000040 31 a0 cc 3d 97 24 17 3e 4e 43 a9 3d af 78 0c 3e
       0.099914916 0.14760052 0.082647905 0.13717912
000050 44 49 70 3d 8c 2b 33 3d 6f 61 8a 3d 24 55 5c 3d
       0.05866362 0.0437427 0.06756865 0.053792134
000060 d9 60 97 3d f1 6f 8c 3d 2e ae a9 3d 9c d5 bd 3d
       0.07391519 0.06857289 0.08285175 0.092692584
000070 83 7b 83 3d 9d 5c 34 3d d7 77 d3 3d bc 7b a1 3d
       0.06420042 0.044033635 0.10325592 0.078849286
000080 cb 57 87 3d 63 71 50 3e 29 25 a7 3d 17 ba a3 3d
       0.06608542 0.20355754 0.081613846 0.07994478
000090 44 81 8e 3d 8d f4 42 3d b4 d1 05 3d 4a 51 a3 3d
       0.06958249 0.047596503 0.03267069 0.07974489

weight f4 [80, 40, 11]
000000 79 80 f2 3c 72 2a 3b 3d d9 7b d3 3c 46 52 43 3d
       0.029602276 0.045694776 0.025815891 0.047685884
000010 71 7e f7 bb 12 a9 89 3b cf d7 5f 3a ab d0 22 bb
       -0.007552915 0.004201063 0.0008538933 -0.0024843614
000020 a2 18 2b 3d 8f 1c 13 3d 6f c7 d4 3c fe 2e 99 3c
       0.04177154 0.035915907 0.025974004 0.018699165
000030 df 55 ba 3c 1d 37 c8 bb 36 66 29 bc 22 db 2c 3d
       0.022746025 -0.0061100856 -0.01033931 0.04220117
000040 0d e6 0f 3c 99 3d 62 3b 6e 45 f5 b9 e0 d0 2a bd
       0.008782876 0.0034521578 -0.0004678177 -0.041703105
000050 1a b7 71 3c 19 b4 e1 bc 53 03 06 3c b5 c1 fe 3b
       0.0147531275 -0.027551698 0.0081795035 0.0077745565
000060 04 0e 68 3c b0 ff e2 3c ea e6 a2 3c bc 10 03 3d
       0.014163498 0.027709812 0.019885499 0.03199838
000070 e3 65 98 3b 2c f4 5e 3c 64 5f 69 ba 6a 54 f8 ba
       0.0046508177 0.01360802 -0.0008902459 -0.0018946056
000080 ba 15 10 3a b4 bf 55 bb 3c 61 82 bc 1e 73 cf 3b
       0.00054964016 -0.0032615485 -0.015915506 0.0063308617
000090 d6 d8 05 3d 9e a1 6a bc d5 7a fb 3c 6e 24 c6 bc
       0.032677494 -0.014320759 0.03069822 -0.024187293
0000a0 de a4 dd bc 9c d7 ad bb 12 fd ab bc 8f 17 25 3c
       -0.027056154 -0.0053052437 -0.020994697 0.010076418
0000b0 58 0c 0c ba 08 5b 55 3a b4 d6 e7 3a f4 e5 88 bc
       -0.00053424155 0.000813887 0.0017687888 -0.016711213
0000c0 d7 75 1a bd cd 2c c1 b9 92 b9 e2 3b f3 c8 8b bc
       -0.037710037 -0.00036845208 0.0069190944 -0.017063593
0000d0 3b ce dc 3c 63 80 43 bb 61 db 56 bb 84 c9 5f bb
       0.026953807 -0.0029831163 -0.0032784569 -0.0034147212
0000e0 ab c2 f8 3b 49 42 32 3c e0 54 89 bc 86 f9 e2 3c
       0.0075915656 0.010880061 -0.016764104 0.027706873
0000f0 95 8f d4 3b 16 f9 4c bc ad f2 8e 3b f5 f3 e0 bc
       0.006486843 -0.012510559 0.0043624253 -0.027460078
000100 03 aa 75 bc b8 85 da bc 56 95 d0 3c e8 8c d1 bb
       -0.014994147 -0.02667509 0.025461834 -0.006394971
000110 09 69 de bc b5 9a 00 bd d1 05 bd bb 7c 1e 5a bc
       -0.027149694 -0.03139754 -0.0057685156 -0.013312932
000120 04 14 31 3b 0a 3e 05 bc 41 05 da bc bd e8 a3 bc
       0.0027019987 -0.008132467 -0.026613833 -0.02000844
000130 46 7c aa bb 0e 03 82 bb 04 66 b0 bb e8 99 23 bd
       -0.005202803 -0.0039676493 -0.005383255 -0.0399417
000140 9e 7d 30 3c 4e 91 7a bc 4d ec 5e 3b 88 4c bd 3c
       0.010772137 -0.015293432 0.0034015358 0.023107782
000150 5b d2 5b bc 86 aa 08 3c f9 4c 85 bc e8 f7 27 3d
       -0.013416852 0.008341437 -0.016272055 0.041007906
000160 78 25 bb bb 7e 62 8c 3c c5 f1 5f 3c 04 01 ab 3c
       -0.0057112537 0.017136808 0.013668482 0.020874508
000170 77 0c d6 3c 78 55 28 3d 22 9b 93 3c a8 64 09 3d
       0.02612899 0.041097134 0.018018309 0.03354326
000180 0c 5a 0f 3d f9 5a 10 3c 19 cf 04 39 69 97 b6 3c
       0.034997985 0.008810752 0.00012665651 0.022288995
000190 cb 69 06 3d 2c ad 77 bc 3a 0c 53 3c d5 37 6d bc
       0.032815736 -0.015116971 0.012881333 -0.014478643
0001a0 ed fa eb 3c 55 29 d9 ba d8 1b 0b 3d 4d d7 14 bd
       0.028806174 -0.0016568104 0.0339621 -0.03633814
0001b0 ac bc 11 bd 90 61 15 bb db 66 af bc 7e 5c 8d 3c
       -0.035580322 -0.0022793747 -0.02141135 0.017256018
0001c0 69 6e 92 3b 98 e1 36 bc c2 30 52 ba 4c 7f b8 39
       0.0044687283 -0.011162184 -0.000801813 0.00035190058
0001d0 02 08 a9 bc 86 ec 27 bd cb f1 1f 3c 74 1d a4 bc
       -0.020633701 -0.04099705 0.009762238 -0.020033576
0001e0 59 02 34 bc 1d b3 26 3d ed b0 88 bb d9 77 01 3d
       -0.010986888 0.04069816 -0.004171482 0.031608436
0001f0 11 17 c8 3c 5d 46 0c bd 6a c2 96 3b 88 ca b5 bb
       0.024425061 -0.03424679 0.0046008127 -0.0055478252
000200 37 85 e4 bb af ab f3 ba cb 4b 10 3d c0 a0 a7 3b
       -0.0069738883 -0.0018590594 0.03522853 0.0051155984
000210 6d dd 56 bb 75 e7 da bc d8 84 20 3b f4 f4 c9 bc
       -0.0032785789 -0.026721695 0.0024493244 -0.024652936
000220 61 e3 d7 3c e7 14 15 3d 8c 0b 2d 3c 2f c7 96 bb
       0.02635354 0.036396887 0.010561835 -0.0046013813
000230 ab 62 5a bc 6a 53 3c bd ae 23 9a bc 0c f0 25 3c
       -0.013329188 -0.045977987 -0.018815842 0.010128032
000240 3a c6 49 bc 01 b8 eb 3b 5d 62 15 3d e0 c4 11 bd
       -0.012315327 0.007193566 0.03647076 -0.035588145
000250 ff 38 88 3a 38 ed c4 3c 3f d2 39 3a 3c 8b 2d 3c
       0.0010392963 0.024038896 0.0007088519 0.010592278
000260 e9 8c 3c 3c 1b da 08 3c e0 ee 5a bc 38 e7 d7 bc
       0.011508205 0.008352782 -0.013362616 -0.02635537
000270 5c 29 85 bb 65 0e 05 bd 61 56 21 3b 02 83 af 3c
       -0.0040637683 -0.03248443 0.0024618136 0.021424774
000280 3f 92 a5 bb ef a7 ba bc 23 6e 29 bd 12 51 5d bd
       -0.0050528343 -0.022785155 -0.0413648 -0.054032393
000290 a6 e0 9e bc 8f 91 84 bb 14 d6 b8 3c ab 5a a8 3c
       -0.01939423 -0.0040456722 0.022563018 0.020551046
0002a0 60 5e 55 3c 5b eb 80 bc 47 7c 47 3c 71 c5 78 bc
       0.013022989 -0.015737226 0.012175626 -0.015183792
0002b0 66 45 b9 bb 08 9d 10 bb 3d e7 a3 bc 65 e6 e8 3c
       -0.005654025 -0.0022066254 -0.020007724 0.028430173
0002c0 18 de 8b 3c 55 41 1f 3c 38 f6 9e 3c bb 3e d0 bc
       0.017073676 0.009720166 0.019404516 -0.025420537
0002d0 78 5c c3 39 88 a6 83 3c ae f0 36 3c 59 8a 12 3c
       0.00037262193 0.01607062 0.011165781 0.008944117
0002e0 f1 b0 69 3c 8a 3c 89 bc a4 59 2a 3c 57 ce 19 3c
       0.0142633775 -0.0167525 0.010397349 0.009387574
0002f0 d5 75 12 3b 7d 76 c8 3c 5b 28 35 3d e4 f7 ce 3c
       0.0022348065 0.024470562 0.04422794 0.025264688
000300 c9 15 bf 38 94 39 1e 3c c9 ec 2c bc 69 54 15 ba
       9.1116475e-05 0.009657282 -0.010554501 -0.0005696477
000310 8e 2f 79 3c 30 a1 0a bd d4 e9 88 ba 67 b7 be bc
       0.015209092 -0.033845127 -0.0010445663 -0.023280812
000320 47 be 8a bc 8c 26 3e bd 88 43 5f b8 64 02 c3 39
       -0.016936434 -0.04642348 -5.3230237e-05 0.0003719508
000330 0f 80 cf 3c 9c f9 9d bb 3c 05 f4 3b 97 50 ba 3b
       0.025329618 -0.0048210155 0.007446913 0.0056858766
000340 a3 7c 9f bc 2c 0a 6b 3a 0d 65 3e 3d 59 17 3c 3c
       -0.019468611 0.00089660543 0.04648309 0.011480176
000350 b7 62 29 3c 4e 32 1d bc b3 92 17 3c 62 da a3 b9
       0.010338477 -0.009594513 0.009251284 -0.0003125249
000360 0b 2d 7b bb 7b b3 33 3c ee 17 04 3c 74 20 50 bc
       -0.0038326408 0.010968084 0.008062346 -0.01270305
000370 d8 30 d9 bb 79 26 1f 3d a6 f0 9e bc aa d7 70 bd
       -0.006628137 0.03885505 -0.01940186 -0.058799423
000380 44 56 f8 bc 51 7c 0f bd 69 8a 06 bd 70 8e 9a bc
       -0.030314572 -0.035030667 -0.032846842 -0.018866748
000390 7e b2 29 bc 32 96 b8 bc 35 26 a6 3c ff 4a 95 3c
       -0.010357497 -0.022532556 0.02028189 0.018224237
0003a0 28 7b d2 bb f9 35 83 bc 43 26 de bc a2 45 51 bb
       -0.006423373 -0.016016947 -0.027117854 -0.0031932374
0003b0 75 dd c6 bc 6e b0 46 3c 94 a7 c0 bc cc 72 fb bc
       -0.02427552 0.012127025 -0.023517407 -0.030694388
0003c0 9c 61 e1 bc 7b 4a fc bb a0 6c 31 bd aa 09 76 bc
       -0.027512364 -0.0076993085 -0.043316483 -0.0150169525
0003d0 ad 88 51 3b 70 85 05 3d 71 3e d9 bc 26 52 95 bc
       0.0031972334 0.03259796 -0.026519032 -0.018227648
0003e0 5b bd 85 bc 60 47 a4 bc 05 f4 d5 bc 86 37 e4 bc
       -0.016325643 -0.020053566 -0.026117334 -0.027858507
0003f0 93 98 9a 3b 54 0d 91 3c 48 09 9f bb f6 b9 16 bd
       0.0047178953 0.01770655 -0.0048534013 -0.03679844

bias f4 [80]
000000 a4 a4 f2 3a 13 8a 0c bb df f5 14 3d dc c6 81 bc
       0.0018512201 -0.0021444603 0.036367293 -0.015841894
000010 f2 a6 09 bc 1f dc 88 bc 75 c5 3f bc 1f 24 14 bd
       -0.008401619 -0.016706524 -0.011704792 -0.03616726
000020 ae 3c be bc d1 69 66 3d 65 ae 38 bd 36 f7 a0 bc
       -0.023222294 0.05625326 -0.04508819 -0.01964913
000030 1e 8d 39 bd b8 dd 5d 3d 78 0f 65 3c 69 64 bf 3c
       -0.045300595 0.054166526 0.013980739 0.023363309
000040 87 53 0c bd 05 28 14 bc cf e1 da 3a a4 62 f3 bc
       -0.034259345 -0.0090427445 0.0016699376 -0.029710121
000050 44 3f a0 bb fc 53 0e bd 1a f8 a2 38 b0 f4 f2 bc
       -0.0048903544 -0.034748062 7.7709745e-05 -0.029657692
000060 76 a0 d3 bc 64 5d 5b bd 86 c6 18 3d 2a 96 83 bd
       -0.02583335 -0.05355586 0.0372987 -0.06425126
000070 e3 aa 69 3d 2b 7c 8f bd 2c 2d be bc 0f 6b 5d 3c
       0.057047736 -0.07006105 -0.023214899 0.013514294
000080 72 b4 64 3d 41 1a 01 3d d6 4f 1d bd e2 8c a7 3c
       0.05583615 0.03151918 -0.038406216 0.02045292
000090 02 fd 40 bd aa ec d1 bc 80 91 3f 3b 7e 05 2a bc
       -0.047116287 -0.025625546 0.0029231012 -0.010377286
0000a0 09 ab 07 bc 1a 5c 5f 3c 65 48 e8 bb 7b 9c e4 bc
       -0.008280524 0.013632799 -0.007088708 -0.027906647
0000b0 a6 cf 18 3c 40 5b f3 bc 71 1a 6b bb 32 26 de bc
       0.009326851 -0.029706597 -0.0035873915 -0.027117822
0000c0 0a 17 b5 bc e3 a2 84 bc d9 9d a2 bc 19 31 a6 bc
       -0.022105712 -0.016190952 -0.019850658 -0.020287083
0000d0 6e d0 79 3c 96 4e a3 bb 1f bc c2 bb 3b 57 26 bd
       0.015247447 -0.0049837334 -0.005942836 -0.040610533
0000e0 07 84 d3 bc e1 55 2c bd b6 c3 35 bd ba 55 08 3d
       -0.025819791 -0.042074088 -0.044376098 0.03328488
0000f0 db f8 47 bd 3a e0 58 3c ec 43 d3 3c 48 62 40 3d
       -0.04882131 0.0132370535 0.025789224 0.04696873
000100 88 03 db 3b e6 9e 06 bd 7c b0 f8 bc db 4a 8b bb
       0.0066837706 -0.03286638 -0.030357592 -0.004250867
000110 a5 2a 47 bd 8e 20 15 bd 1d af 5b 3d cf f4 8d 3c
       -0.048624653 -0.036408 0.053633798 0.017328648
000120 36 4e 04 3d 87 58 4d bd 5e 26 ab 3c d1 dc 5c bc
       0.03230115 -0.050133254 0.020892318 -0.013480381
000130 f8 49 ec bc e7 2b 13 3d c7 b3 24 bd 1f 6e 33 3b
       -0.028843865 0.03593054 -0.04021051 0.002737887

weight f4 [80]
000000 d9 2e 7b 3f 15 b4 74 3f 57 06 82 3f b3 01 82 3f
       0.9811836 0.95587283 1.0158185 1.0156769
000010 e7 80 82 3f c6 38 78 3f af ec 80 3f 5d 3c 82 3f
       1.0195588 0.9696163 1.007223 1.0174671
000020 60 73 82 3f d0 88 78 3f ce f2 79 3f c7 5b 7b 3f
       1.019146 0.9708376 0.97636116 0.98186916
000030 b4 28 7e 3f e0 3a 7c 3f f4 35 80 3f 43 75 82 3f
       0.9928086 0.98527336 1.0016465 1.0192035
000040 34 2f 7e 3f e7 23 83 3f d8 5b 80 3f 58 32 78 3f
       0.99290776 1.0245332 1.0028028 0.9695182
000050 6a cc 80 3f 13 2e 82 3f 2a bd 82 3f bf b6 75 3f
       1.0062382 1.0170311 1.0213978 0.95981973
000060 7d ea 81 3f 00 bc 83 3f 38 75 7d 3f f4 02 84 3f
       1.0149685 1.0291748 0.99006987 1.0313401
000070 16 6c 7e 3f c2 c3 7a 3f 87 1b 71 3f 8c 7a 76 3f
       0.99383676 0.9795495 0.9418263 0.9628074
000080 9d 36 80 3f 5d 79 82 3f 71 56 7f 3f ae 5e 80 3f
       1.0016667 1.0193287 0.99741274 1.0028894
000090 c6 1b 7c 3f fc 93 80 3f a4 26 81 3f 14 3a 81 3f
       0.9847988 1.0045161 1.0089917 1.0095849
0000a0 79 7f 7f 3f 70 01 7e 3f 1e 1b 7f 3f e8 1f 7d 3f
       0.9980388 0.99220943 0.9965075 0.9887681
0000b0 89 18 84 3f 19 2a 81 3f be b7 7b 3f d0 35 7d 3f
       1.0319988 1.0090972 0.98327243 0.98910236
0000c0 a7 01 82 3f b3 e1 7d 3f 8d b2 7c 3f ad 82 81 3f
       1.0156754 0.99172515 0.98709947 1.0118004
0000d0 bd 75 84 3f 9a f2 80 3f 22 9e 84 3f df 1f 83 3f
       1.0348431 1.0074036 1.0360758 1.0244101
0000e0 84 62 80 3f 65 94 7f 3f 5c ff 80 3f e4 8a 79 3f
       1.0030065 0.9983581 1.007793 0.97477555
0000f0 00 43 77 3f 37 7c 82 3f 87 4d 80 3f fc 1c 7f 3f
       0.9658661 1.0194157 1.002366 0.996536
000100 31 fb 80 3f c8 61 7e 3f c0 35 82 3f d5 6a 76 3f
       1.0076658 0.9936795 1.0172653 0.9625676
000110 38 ee 77 3f 79 73 82 3f 11 78 80 3f a0 0a 7a 3f
       0.9684787 1.019149 1.0036641 0.9767246
000120 88 f7 73 3f 6b ff 7d 3f 7d 05 83 3f 36 76 79 3f
       0.9529958 0.9921786 1.023605 0.97446
000130 84 0b 7c 3f 85 b1 81 3f 8f 92 81 3f 55 1a 82 3f
       0.9845507 1.01323 1.0122851 1.0164286

bias f4 [80]
000000 66 17 d8 3c c0 a4 d4 3c 8d 1e 31 bd 74 49 0b 3c
       0.026378345 0.025957465 -0.043242026 0.008501399
000010 75 67 c6 3c 91 87 58 3c c9 f7 3d 3c 0a be b2 3b
       0.024219254 0.013215915 0.011594721 0.0054547833
000020 b8 64 bd 3b c5 7d 14 bc 22 3c 41 3c 3c 06 9a bc
       0.005779829 -0.009063189 0.011794122 -0.0188018
000030 67 71 c1 bb b4 be 23 3c 35 f5 32 bd 51 84 92 3b
       -0.005903411 0.009994198 -0.04369088 0.0044713398
000040 76 95 66 3d e1 0c 8a bb 2b 72 c2 3c f1 de 42 3d
       0.05629488 -0.004212961 0.02373608 0.047575895
000050 60 42 a3 3c 08 b0 d6 3b a7 73 57 3c 69 35 e9 bb
       0.019929111 0.0065517463 0.013150132 -0.0071169627
000060 84 e3 a4 bb e2 20 02 3d 54 b0 1c 3a 0a 64 6e 3c
       -0.005032005 0.03176964 0.00059772027 0.014550218
000070 43 03 f0 bc 81 6e 0a bc bd a6 f1 3c cf e3 15 3b
       -0.02929843 -0.008449198 0.029498452 0.002287138
000080 19 91 ec bc bd 2b 1c bd 09 70 fc 3c 2f 9a 2c 3d
       -0.028877782 -0.03812765 0.030815141 0.04213923
000090 d4 da 0c bc 22 4d 40 ba 92 62 07 3c 49 f3 ba bc
       -0.008597095 -0.00073357124 0.008263247 -0.022821086
0000a0 b8 31 0e 3d d4 29 3b bc 7a 04 b0 3c b0 b1 07 3d
       0.034715384 -0.011423547 0.02148651 0.03312844
0000b0 65 e0 1b 3d ca 06 82 3b 6b 2b 07 3d 4d 98 90 3b
       0.038055796 0.0039680945 0.03300039 0.004412687
0000c0 af 2a b0 ba b6 1a 98 3c 04 53 f0 3c c9 98 76 3b
       -0.0013440455 0.018567424 0.02933646 0.0037627688
0000d0 dd b7 db 3c 2a 3b 48 3d c8 ef ef 3a 75 ef af 3c
       0.026821071 0.04888455 0.0018305713 0.021476487
0000e0 3e 82 4c bc a6 d0 98 bc f3 c6 52 ba 8f c1 99 bc
       -0.012482224 -0.018654179 -0.000804051 -0.018769054
0000f0 9e 58 7c bc f0 59 6d bc ea 59 26 3d 2c d5 ea ba
       -0.015401987 -0.014486775 0.040613092 -0.0017916313
000100 17 0f 89 bc f2 0e 60 bc b2 a1 d2 bc 55 09 30 3b
       -0.016730828 -0.013675438 -0.025711868 0.002686103
000110 fe a5 03 3a 13 80 fc 3b 9a d5 fe 3c 0c 9d bd bc
       0.0005021988 0.0077056973 0.031107713 -0.023146175
000120 c2 c0 09 bd 13 8e 55 3c a2 ee 5e bb ef 92 bc 3b
       -0.033631094 0.013034361 -0.0034016748 0.0057548205
000130 35 1c d3 3c de 2f 16 3c 01 91 bb 3b 2e 96 12 3c
       0.025770286 0.009166686 0.005724073 0.008946938

running_mean f4 [80]
000000 69 71 31 3e 9d 79 38 3e 4d 6b 05 3e 4f c4 d5 3d
       0.17328419 0.18015142 0.13029213 0.104378335
000010 7e a7 ae 3d fa e8 52 3e 78 d8 0d 3d ec c2 04 3d
       0.0852804 0.20596686 0.03463027 0.032412454
000020 56 c8 4f 3e 9a ff da 3e 61 1f 1e 3e 50 34 16 bb
       0.20291266 0.42773134 0.15441658 -0.0022919364
000030 67 09 c5 3d 0f cf 3a 3e 02 87 46 3e 7a 1d 28 3d
       0.09620934 0.18243049 0.19387439 0.041043736
000040 b4 be e9 3e 34 bf 0f 3d c4 f2 b3 3e 3f 8e 8d 3e
       0.45653307 0.035094455 0.35146153 0.27647588
000050 61 6c 06 3f 10 f1 08 3d 68 91 2e 3e 5d 38 5c 3e
       0.52509123 0.03343302 0.17047656 0.21505876
000060 bb 70 be 3d 8e be 05 3f fa 58 f7 3e 43 07 43 bc
       0.092988454 0.5224389 0.4831007 -0.011903587
000070 bf 9d 52 3e 14 89 c5 3e 12 06 fc 3c 78 04 88 3e
       0.20567988 0.38581145 0.030764613 0.2656591
000080 f8 6f f3 3d ad 4b ef 3d 07 70 af 3e d1 51 cd 3e
       0.11886591 0.11684356 0.34265158 0.40101483
000090 25 d4 7d 3d b9 26 c9 3d 67 e4 da 3d 3a 2c 48 3d
       0.061969895 0.09821839 0.106880955 0.048870303
0000a0 5b bb f1 3e fc de 43 3e a4 09 a4 3e c0 bb 7f 3e
       0.47213253 0.1912803 0.32038605 0.24973965
0000b0 e2 86 ec 3e 70 18 1f 3e ec 9e 14 3f 40 16 e2 3d
       0.46196657 0.15536666 0.58054996 0.110394
0000c0 65 2e 0d 3e c2 f9 8f 3d c2 08 34 3e b2 99 b2 3e
       0.1378723 0.070300594 0.17581466 0.34882885
0000d0 b2 1c ae 3c b5 9a 9c 3e 10 07 d6 3d a6 58 53 3e
       0.021253917 0.30586782 0.10450566 0.20639285
0000e0 c5 36 0a 3e e7 94 b6 3e d7 4e 9b 3e 04 68 aa 3d
       0.13497455 0.35660478 0.30333588 0.08320621
0000f0 d7 2e 8a 3e a8 99 ca 3d 37 03 06 3b 75 aa 38 3e
       0.2698886 0.09892589 0.0020448694 0.18033774
000100 2b d0 82 3e 87 52 ee 3e d5 02 43 3e 40 db 16 3e
       0.25549445 0.46547338 0.19044049 0.14732075
000110 8e 77 1c 3e df d7 31 bd 42 f4 14 3e d5 1f 3a 3d
       0.15279981 -0.04341876 0.14546302 0.045440514
000120 11 36 09 3e 07 69 86 3e 3a 30 96 3d 4f be d6 3d
       0.13399531 0.26252005 0.07333417 0.10485517
000130 20 51 11 3e 1c 22 70 3d c6 89 4d 3e 54 7c 07 3f
       0.14191103 0.05862628 0.20072088 0.52924085

running_var f4 [80]
000000 4b 57 01 3e 90 67 ac 3d 42 c5 c6 3d 94 de a0 3d
       0.12630956 0.084181905 0.09705593 0.078549534
000010 e5 8d 10 3e f6 5a f5 3d 29 7b e5 3c b9 ff 1e 3e
       0.14116628 0.1198024 0.028012829 0.15527238
000020 a6 aa 06 3e e9 0e 3e 3e 46 22 e1 3d 37 8a 94 3c
       0.13151035 0.18560375 0.10992865 0.018132312
000030 da b9 9b 3d 9e 79 a1 3d 6e d9 55 3e 7a 9a 71 3d
       0.07603808 0.07884525 0.20883724 0.05898521
000040 3a 32 a7 3e cd ea 95 3d c3 e2 cb 3d 8c 70 e1 3d
       0.32655507 0.07320175 0.09955361 0.11007795
000050 ca 8c 98 3e 0a ad 98 3d 8c 4c b4 3d a9 37 02 3e
       0.29794914 0.074548796 0.08803663 0.12716545
000060 0e 28 38 3e a2 08 01 3f 02 24 79 3e f3 51 95 3c
       0.1798403 0.504038 0.24330142 0.018227553
000070 a9 e2 ce 3d eb e1 a8 3e 79 f8 0d 3d a4 71 6c 3e
       0.10101826 0.32984862 0.03466079 0.23090225
000080 7e 6c 81 3d 57 69 a3 3d ec 11 58 3e 4d 01 1c 3e
       0.06319521 0.07979076 0.21100587 0.15234871
000090 51 82 5c 3d 00 db 6f 3d 43 53 81 3d af 00 5e 3d
       0.053835217 0.058558464 0.06314709 0.05419987
0000a0 77 18 6f 3e 1e 3f cb 3d 6f 75 29 3e f3 d3 be 3d
       0.23349176 0.09924148 0.16548704 0.0931777
0000b0 4d 3f ab 3e 57 be b5 3d 0f 88 ff 3e 90 90 9b 3d
       0.33446732 0.08874195 0.49908492 0.075959325
0000c0 a7 bf a0 3d 4b 21 85 3d 36 e9 b9 3d 0f a1 35 3e
       0.07849055 0.06500491 0.090776846 0.1773722
0000d0 21 f3 24 3d a3 1f 23 3e 97 6f ce 3d db 74 19 3e
       0.04027093 0.15930037 0.10079878 0.14985983
0000e0 9a d3 ac 3d 36 af 48 3e e3 a1 b6 3d 43 5f 42 3d
       0.08438797 0.19598088 0.08917596 0.04745413
0000f0 3c c6 1f 3e 59 06 71 3d 19 82 e7 3c b6 aa 99 3d
       0.15602964 0.058843944 0.028260278 0.07503264
000100 95 cd 48 3e 6c 13 45 3e ee 2b 99 3d ab fb 02 3e
       0.19609673 0.1924569 0.07479082 0.12791316
000110 14 70 bf 3d 42 3c d8 3c 0e 68 fb 3d c1 e8 7c 3d
       0.09347549 0.02639592 0.12275706 0.06174541
000120 6a c4 a3 3d 76 b0 30 3e 45 0e 84 3d d2 89 a9 3d
       0.079964474 0.17254815 0.06448034 0.0827824
000130 9d ed 80 3d c2 19 1b 3d a4 cd 01 3e 4b ac 29 3e
       0.06295321 0.03786636 0.12676102 0.16569631

weight f4 [160, 80, 11]
000000 58 38 10 bc 7e 10 a8 bc 8e 1e e2 bb 78 19 10 bc
       -0.008802496 -0.020515677 -0.006900615 -0.008795135
000010 fa 19 f3 bc ac a2 80 3b 52 44 2a 3c fc 51 76 bd
       -0.029675473 0.003925642 0.010392265 -0.06013678
000020 93 63 1c 3c 3b e8 14 bc e0 1c f6 bc b1 95 f8 3b
       0.009545225 -0.009088571 -0.030043066 0.007586204
000030 05 ce b4 ba e6 11 86 3c e1 b0 b4 bb b8 ec 61 3c
       -0.0013794309 0.016365957 -0.0055142497 0.013789348
000040 6f 7c 24 3c b4 01 42 3d 64 95 4a 3d aa ec 02 3c
       0.010039433 0.047364905 0.049458876 0.007990995
000050 1e 4f 82 3b b4 fe c3 bc dd 98 10 bc 5a 95 a1 bc
       0.0039767167 -0.023925163 -0.008825508 -0.019724537
000060 39 90 b5 bc da f5 32 3c 33 7b 9e 3b be 01 8e bb
       -0.022163497 0.010922873 0.004836464 -0.004333704
000070 2b 98 09 3c 3f 82 d0 bc b5 79 d3 bb 5a c7 aa 3c
       0.008398096 -0.025452731 -0.0064537176 0.020847011
000080 54 dc ca bc 40 9a c6 bb a0 1b c1 ba d7 73 02 bd
       -0.024763264 -0.0060608685 -0.0014732964 -0.031848755
000090 39 ae 8c 3c bd c2 68 bc d0 a3 29 3d 25 7e 8d bc
       0.01717292 -0.0142065855 0.04141599 -0.017272064
0000a0 ff ee b4 bb 42 47 cb bc e4 e8 c6 3a e0 89 61 3c
       -0.0055216546 -0.024814252 0.0015175608 0.013765782
0000b0 73 b7 ad bc 50 14 5f bc 3c f8 18 3d 31 a1 4a 38
       -0.02120564 -0.013615683 0.03734611 4.8310674e-05
0000c0 53 6c d9 b9 1f ee 13 3c 44 ad 12 bb 76 32 5a 3c
       -0.00041470173 0.00902894 -0.0022381106 0.013317695
0000d0 7f ac 01 bd e8 da 07 3c 45 82 b1 3c df 03 cd bc
       -0.031658646 0.008291937 0.021668563 -0.02502626
0000e0 6c 76 7d bb 3d cc d9 3c cb c7 7d 3c 77 14 91 bc
       -0.0038675321 0.026586646 0.015489529 -0.017709954
0000f0 b0 e0 34 3c 3a 12 f4 39 26 04 7e 3b 0d d1 05 bc
       0.011039898 0.00046552886 0.0038759797 -0.008167517
000100 30 38 9d bc 70 38 5c 3c 43 fd 0f bd ba 3a 60 bc
       -0.019191831 0.01344119 -0.03515364 -0.0136858765
000110 cc 28 3b bb 8c 7f 9f 3b c6 74 c0 3c b9 4e 98 bc
       -0.0028558252 0.0048674997 0.023493182 -0.018592225
000120 e1 d9 16 bd 62 9b 39 3c 38 08 ce 3b 83 ab ad 3c
       -0.03682888 0.01132855 0.006287601 0.021199947
000130 a5 a1 10 bd 69 82 b6 bc 49 17 cd 3c fc 3d bc 3c
       -0.035310406 -0.022278981 0.025035517 0.022978775
000140 86 ff e1 bc 84 22 e7 3b fa af 73 3c d5 10 e2 3c
       -0.027587663 0.007053675 0.014873499 0.027595917
000150 ad b7 8b 3c 0f 18 78 3b 16 00 6c 3b 24 77 d3 3c
       0.017055357 0.0037856137 0.0036010793 0.025813647
000160 ed 33 01 3c ef 2f f2 bc 89 42 a3 bc 8c 9f 6f bc
       0.007885915 -0.029563872 -0.019929187 -0.014625441
000170 19 68 8a 3c ea e4 90 3c 53 7e 39 bb 55 da 1b bd
       0.01689534 0.01768728 -0.0028304055 -0.038050015
000180 6d e4 ea 3b 0c b6 2c bc ff fc 40 bc ee 98 22 bc
       0.0071683438 -0.01054145 -0.011779069 -0.009924157
000190 89 9c 76 bc b9 6d 85 3b 6f 14 de ba 55 bd e7 3c
       -0.015051969 0.004071918 -0.0016943346 0.028288523
0001a0 22 95 c0 3c 4c 71 b5 bc 06 19 89 bc 7b 33 2b bd
       0.023508612 -0.02214875 -0.016735565 -0.041797142
0001b0 b2 f4 7e bb a4 83 4c bc 9d ee 1a bb 63 78 be bc
       -0.0038903174 -0.012482557 -0.002364076 -0.023250764
0001c0 98 60 b8 3b 11 a6 af 3c d2 53 e8 bc 5f 9a b8 3c
       0.0056267492 0.021441491 -0.028360281 0.022534547
0001d0 81 42 d1 3a 17 14 02 3b fc 65 18 bd c1 53 45 bc
       0.0015965254 0.00198484 -0.037206635 -0.012043894
0001e0 43 65 a8 bc 0b 3c 0f bd 7e 1f 85 bc be c7 7c bc
       -0.020556098 -0.03496937 -0.016250368 -0.015428482
0001f0 ea bb d3 3b 68 21 75 bb 06 9a 2e 3c 19 c0 2f 3c
       0.00646161 -0.0037403945 0.010656839 0.010726952
000200 78 66 fc 3a f2 16 f8 3c ae a4 e3 3c 91 79 bf 3c
       0.0019256612 0.030284379 0.027788486 0.023373397
000210 3b a5 16 bd 3e 42 91 3c dd d1 48 bd 80 c4 f6 3c
       -0.03677867 0.017731782 -0.049028266 0.030122995
000220 ec dc 58 3c b8 60 c6 bb df aa 90 bb ab 1a 29 bd
       0.013236266 -0.0060540102 -0.0044149007 -0.0412852
000230 c6 52 fb bb ed 00 4e 3c 4a 6f bb 3c 26 30 a8 3b
       -0.0076697795 0.012573463 0.022880215 0.005132693
000240 11 2c 8a bc 54 d8 85 bc 3f 3c 06 bd 20 da 48 bb
       -0.016866716 -0.016338505 -0.0327723 -0.003064759
000250 21 27 1b bc 46 28 ed 3c 20 db 0c 3a cd 14 cc 3c
       -0.009469778 0.028949868 0.00053732283 0.024912262
000260 8b 81 14 bd 41 e6 84 bc 02 11 f5 3c dd 6d 8f bc
       -0.036256354 -0.016223075 0.029915337 -0.017508442
000270 0e 7d 8c bb 10 6d 14 bc ec 74 6c bc 9c df 92 bc
       -0.0042873686 -0.009059206 -0.014432173 -0.01792889
000280 15 57 da 3c 34 6b 92 3c b0 8a a7 bb 37 45 bb bb
       0.026652852 0.017873384 -0.0051129684 -0.005715038
000290 3c 6b 31 bd 19 7f 2d bc 64 eb 5f 3c 63 e0 89 bc
       -0.043315157 -0.0105893845 0.013666961 -0.016830629
0002a0 02 25 d4 3c 56 38 ca bb 75 c3 bd 3a ee 03 fd 3c
       0.025896553 -0.0061712665 0.0014477806 0.030885663
0002b0 ac 6a 05 bc 7d 49 c8 3c a5 a3 93 3c 39 64 00 bd
       -0.008143108 0.024449104 0.018022368 -0.03134558
0002c0 a5 9e 65 ba c7 07 97 bc 24 24 a2 3b 94 46 1a 3d
       -0.00087592966 -0.018436326 0.004948156 0.037664965
0002d0 3a b3 c2 3c 75 40 70 3d 6c d2 11 bd 49 22 85 3a
       0.023767103 0.05865522 -0.035601065 0.0010157312
0002e0 ac 20 bd 3b 16 b0 35 3d dc ec 8b 3a 6e df ec 3b
       0.005771717 0.04435738 0.0010675448 0.0072287833
0002f0 9d 8d 31 bb da ee cf 3c 01 81 0f 3b a5 3e 6d 3c
       -0.0027092465 0.025382448 0.002189696 0.014480268
000300 9e 47 91 bc 0a 7b 11 3d 59 7a 57 3c 74 e5 2b bd
       -0.017734345 0.03551773 0.013151729 -0.04196687
000310 36 e2 30 bc f9 8c ee 3c e3 bf ec bb 24 79 10 3d
       -0.01079612 0.029119955 -0.007225023 0.03527178
000320 ca 8d 9b 3b bf 61 06 bc 42 9f 22 bc 76 7c 15 3d
       0.004747127 -0.008202015 -0.009925665 0.03649565
000330 5c b3 d0 3c 83 eb 19 3d 80 b1 26 3d cf 15 c9 3c
       0.02547615 0.037578117 0.04069662 0.024546532
000340 47 71 75 3c 14 0c 4d bd ef 38 09 bd 0f ab 1a bc
       0.014980621 -0.050060347 -0.03350156 -0.009440198
000350 5a 16 5c 3c f8 2e 9b bc 20 d9 61 bb a8 e8 47 3c
       0.013433063 -0.018943295 -0.0034461692 0.012201466
000360 ae 33 01 3d 63 f4 18 3d c3 a4 86 3c ba 2f d9 3c
       0.031543426 0.03734244 0.016435986 0.026512016
000370 05 e8 80 3c a6 ac d2 3b bf 8d 33 bd 08 b9 4e bc
       0.015735636 0.0064292727 -0.04383635 -0.012617357
000380 91 64 00 3d 6e a5 97 3a 9e 16 24 bd b4 e8 90 3c
       0.031345908 0.0011569688 -0.040060632 0.017689086
000390 de 37 f3 bc 41 13 d1 3c ce 65 6d 3c 3b 49 67 3c
       -0.029689725 0.025521876 0.014489604 0.014116581
0003a0 3c 52 9f 3c 9b 2d 7a bc 21 37 1f bd ed 2d ea 3c
       0.019448392 -0.015269662 -0.038870934 0.028586352
0003b0 aa 45 fb 3c f4 0c 03 3c b9 9f b5 bb b2 d3 9e bb
       0.030672867 0.007998694 -0.005542722 -0.0048470134
0003c0 08 19 79 bb df b4 80 bc 19 cd 8d bc 47 4c 8c bc
       -0.0038009305 -0.015711246 -0.017309712 -0.017126216
0003d0 7c f9 8d bb 23 4c 2f 3c 21 da e3 bc f2 f7 37 3c
       -0.0043327194 0.010699305 -0.027813973 0.011228548
0003e0 4b de ea 3b 1a 39 8c bc f2 4d 07 bc 30 85 08 bc
       0.0071676127 -0.017117072 -0.00825833 -0.008332536
0003f0 c7 03 4f bc 44 0a 8d bc 39 7a 5e bc a5 b6 e4 3c
       -0.012635178 -0.01721681 -0.013578945 0.027919123
